Namespace(hidden_channels=1024, batch_size=1024, dropout=0.5, epochs=100, model='rgat', sizes=[25, 15], in_memory=False, device='1', device_ids=[1])
#Params 10908534
RGNN(
  (rob_proj_ml): Sequential(
    (0): Linear(in_features=768, out_features=384, bias=True)
    (1): BatchNorm1d(384, eps=1e-05, momentum=0.1, affine=True, track_running_stats=True)
    (2): ReLU(inplace=True)
  )
  (bloom_norm): BatchNorm1d(63, eps=1e-05, momentum=0.1, affine=True, track_running_stats=True)
  (transe_proj_ml): Sequential(
    (0): Linear(in_features=64, out_features=53, bias=True)
    (1): BatchNorm1d(53, eps=1e-05, momentum=0.1, affine=True, track_running_stats=True)
    (2): ReLU(inplace=True)
  )
  (convs): ModuleList(
    (0): ModuleList(
      (0-4): 5 x GATConv(500, 256, heads=4)
    )
    (1): ModuleList(
      (0-4): 5 x GATConv(1024, 256, heads=4)
    )
  )
  (norms): ModuleList(
    (0-1): 2 x BatchNorm1d(1024, eps=1e-05, momentum=0.1, affine=True, track_running_stats=True)
  )
  (skips): ModuleList(
    (0): Linear(in_features=500, out_features=1024, bias=True)
    (1): Linear(in_features=1024, out_features=1024, bias=True)
  )
  (mlp): Sequential(
    (0): Linear(in_features=1024, out_features=1024, bias=True)
    (1): BatchNorm1d(1024, eps=1e-05, momentum=0.1, affine=True, track_running_stats=True)
    (2): ReLU(inplace=True)
    (3): Dropout(p=0.5, inplace=False)
    (4): Linear(in_features=1024, out_features=153, bias=True)
  )
  (train_acc): MulticlassAccuracy()
  (val_acc): MulticlassAccuracy()
  (test_acc): MulticlassAccuracy()
)
/home/hxs7303/.conda/envs/gnn-t/lib/python3.9/site-packages/pytorch_lightning/trainer/connectors/logger_connector/logger_connector.py:76: Starting from v1.9.0, `tensorboardX` has been removed as a dependency of the `pytorch_lightning` package
…
